models/traffic_classifier.pth (torch, 625554 bytes, 10 tensors)

features.0.weight f4 [16, 3, 3, 3]
0	0xbe08cd83	-0.13359646
1	0x3d0245b1	0.031804744
2	0x3e3a58eb	0.18197982
3	0x3d33d06b	0.043899935
4	0x3ddcff33	0.10790863
5	0xbd738d4e	-0.05946093
6	0x3dd9d3ef	0.10636126
7	0xbd736fce	-0.059432797
8	0xbcd129c5	-0.025532613
9	0xbde9875a	-0.114027694
10	0xbe20debe	-0.1570997
11	0xbd40f589	-0.04710916
12	0xbe60cdad	-0.21953459
13	0xbe481e8a	-0.195429
14	0x3e253c8a	0.16136375
15	0x3e2664d8	0.16249406
16	0xbd0773fd	-0.0330696
17	0xbe13b4d7	-0.14424454
18	0x3c92b9fc	0.01791095
19	0x3ded13e4	0.115760595
20	0x3e38fd89	0.18065466
21	0x3debba30	0.11510122
22	0xbe2083c3	-0.15675263
23	0x3d3f775b	0.046744686
24	0x3da3949d	0.0798733
25	0xbd46161e	-0.048360936
26	0x3d266fc7	0.040633943
27	0x3e6aa5d8	0.22914827
28	0x3e397154	0.18109637
29	0x3e2d44f3	0.16920833
30	0x3e3f30de	0.18670985
31	0xbd05c25f	-0.03265607
32	0x3d0ed839	0.034874175
33	0xbe4c9f8a	-0.19982734
34	0xbd995231	-0.0748638
35	0xbcaeb573	-0.021326756
36	0x3d99b933	0.07506027
37	0x3d7e04ef	0.062016424
38	0xbd7ce1f2	-0.061738916
39	0xbddf286a	-0.1089638
40	0xbe2d0175	-0.16895087
41	0xbda4c788	-0.0804587
42	0xbe51285a	-0.20425549
43	0xbccde428	-0.025133207
44	0xbdd9a4f1	-0.10627163
45	0xbe3b2f50	-0.18279767
46	0xbd7c61ab	-0.06161658
47	0x3df42497	0.119210415
48	0x3db461eb	0.08807739
49	0xbd03a72b	-0.032141846
50	0xbdc344d9	-0.09534616
51	0x3dc57d0a	0.0964299
52	0x3e49c165	0.1970268
53	0x3e45d461	0.19319297
54	0xbe0478b5	-0.12936671
55	0x3e27eb16	0.16398272
56	0xbe04b1db	-0.12958471
57	0xbdc55271	-0.09634865
58	0x3e1fe98a	0.15616432
59	0x3da16c90	0.07882035
60	0xbc963bed	-0.018339122
61	0xbe1eec3d	-0.15519805
62	0xbceb84fd	-0.028749937
63	0x3e3c3e8c	0.18383235
64	0x3e036cbe	0.1283445
65	0xbe7b3ff5	-0.24536116
66	0x3e0b87c9	0.13626017
67	0x3e3848e8	0.17996562
68	0x3dda4cf1	0.10659207
69	0xbe0348c6	-0.1282073
70	0xbe38ab79	-0.18034162
71	0xbe6613e2	-0.22468522
72	0x3d8aaa2b	0.06770738
73	0x3e6d7ba4	0.23191696
74	0xbd39d0cf	-0.04536515
75	0x3de31857	0.11088627
76	0x3e15378e	0.14571974
77	0x3de2d890	0.11076462
78	0xbe042203	-0.129036
79	0xbdd95721	-0.10612322
80	0x3dc12576	0.09430973
81	0x3dc2c373	0.09509935
82	0x3d23f4c3	0.040028345
83	0xbd8197ba	-0.06327768
84	0xbe24c7d4	-0.16091853
85	0x3e215b67	0.15757523
86	0x3aabc8dd	0.0013106127
87	0x3dac1ff9	0.08404536
88	0xbdb69500	-0.08915138
89	0xbe609022	-0.21929982
90	0x3debc67c	0.11512467
91	0xbd513e12	-0.051084585
92	0xbe44954e	-0.1919758
93	0xbd83b96f	-0.06431853
94	0xbd4be346	-0.04977729
95	0xbdf2b68c	-0.11851224
96	0xbd4fafd4	-0.050704792
97	0x3ddfcaf2	0.109273806
98	0x3c8eb74d	0.017421389
99	0x3e1d48ab	0.15359752
100	0x3dc28d59	0.09499616
101	0x3dafa7b2	0.08576907
102	0x3e578e57	0.21050392
103	0x3e58600a	0.21130386
104	0x3e18a683	0.14907269
105	0x3e2f1794	0.17098838
106	0x3d9af056	0.07565372
107	0xbd6177d4	-0.055045918
108	0x3e16db2a	0.14732042
109	0x3c725c9b	0.014792587
110	0x3e7703ad	0.24122496
111	0x3e63cdf5	0.22246535
112	0xbc8bb34f	-0.017053274
113	0x3e474581	0.19460107
114	0x3e5c7505	0.21529014
115	0x3dfbc775	0.12293903
116	0xbe0343c4	-0.1281882
117	0xbdc81921	-0.09770418
118	0xbe55a896	-0.20865092
119	0x3db25430	0.08707464
120	0x3d1c24d1	0.03812105
121	0xbe140a53	-0.14457063
122	0x3d43e694	0.04782732
123	0x3be6f9d7	0.007048826
124	0xbe020334	-0.12696534
125	0x3c83e940	0.016102433
126	0xbe0f5125	-0.13995798
127	0xbe1b0e0d	-0.15142079
128	0x3dcc3866	0.09971695
129	0xbe40abdd	-0.1881556
130	0x3d93a473	0.072091006
131	0xbe10c533	-0.14137726
132	0x3c842bc9	0.01613416
133	0xbd085602	-0.03328515
134	0xbcb89aba	-0.022534717
135	0xbe74edf8	-0.23918903
136	0xbe05d6f4	-0.1307028
137	0xbe805ced	-0.25070897
138	0x3db15b7c	0.086600274
139	0xbe23c769	-0.15994038
140	0xbe3a5bbb	-0.18199055
141	0x3d225d3c	0.039639696
142	0x3e0ccc26	0.13749751
143	0xbdd900e9	-0.10595877
144	0x3e49151c	0.19636959
145	0x3df96563	0.12177541
146	0x3e3d54a9	0.18489327
147	0x3e0cc4fa	0.13747016
148	0x3cf03b3a	0.029325116
149	0x3e325f71	0.1741922
150	0xbe0cb984	-0.13742644
151	0x3dd75419	0.10514087
152	0xbd04600b	-0.032318156
153	0xbe5f167d	-0.21785922
154	0x3dc50289	0.09619624
155	0xbd71ea7e	-0.05906152
156	0xbc4adbee	-0.012381537
157	0x3e0f4062	0.13989404
158	0x3e2c3f91	0.16821124
159	0xbdabe2f6	-0.08392899
160	0x3e0c42e9	0.13697399
161	0xbe7181f1	-0.23584725
162	0xbd93e942	-0.07222225
163	0xbd13e647	-0.03610828
164	0xbe0a2806	-0.1349183
165	0xbd6fca6c	-0.058542654
166	0xbda798c4	-0.081834346
167	0xbda58698	-0.08082312
168	0xbb8ce18c	-0.004299348
169	0x3e4a7191	0.19769885
170	0x3e842198	0.2580688
171	0x3ddacdec	0.10683808
172	0xbdeffeda	-0.11718531
173	0xbe333c6d	-0.1750352
174	0x3dba9d10	0.091119885
175	0xbe029c55	-0.12754948
176	0xbcbce609	-0.023058908
177	0xbde9426c	-0.11389622
178	0x3e0378d0	0.12839055
179	0x3d814bcb	0.063132845
180	0xbdc651c5	-0.09683565
181	0x3de72a1b	0.11287328
182	0xbe0280a5	-0.12744386
183	0x3dbe5d88	0.092951834
184	0x3c1c93da	0.009556735
185	0x3e49f2cc	0.19721526
186	0x3c59b2b2	0.013287233
187	0xbe0d98af	-0.13827775
188	0x3e2b5c83	0.16734509
189	0x3cdf4b52	0.027257595
190	0xbd0e7cf8	-0.03478715
191	0xbd300de7	-0.04298201
192	0x3cede56d	0.029040063
193	0x3e0ff8f5	0.14059813
194	0xbe0d1711	-0.1377833
195	0xbd9d16ca	-0.07670362
196	0xbd1451a5	-0.036210675
197	0x3e0c24c2	0.13685897
198	0xbe2757ca	-0.16342083
199	0xbd4dc14c	-0.05023317
200	0x3e5c21f4	0.21497327
201	0x3d05a307	0.032626178
202	0xbd775515	-0.060383875
203	0x3ca475eb	0.020075759
204	0xbe6dd799	-0.23226775
205	0xbe022e79	-0.1271304
206	0x3e26d306	0.16291437
207	0x3e166fd6	0.146911
208	0x3d6585cf	0.056035813
209	0x3ddeddec	0.10882172
210	0xbe75e11a	-0.2401165
211	0xbde488aa	-0.11158879
212	0x3e5cf68d	0.21578427
213	0xbe3f583d	-0.18686004
214	0x3df8eb6b	0.121542774
215	0x3e22cc25	0.15898187
216	0x3dfd3839	0.12364239
217	0xbe61a269	-0.22034611
218	0xbe886bcf	-0.2664475
219	0x3dfa709a	0.12228508
220	0x3be00f6d	0.0068377764
221	0xbe00e1c2	-0.1258612
222	0x3d9a13ee	0.075233325
223	0xbd901b9c	-0.07036516
224	0x3e451419	0.19245948
225	0x3d2b4277	0.041811433
226	0xbe2f6034	-0.17126542
227	0xbba3133c	-0.004976658
228	0x3e28ad29	0.16472305
229	0x3e344507	0.17604457
230	0x3e03f7f3	0.12887554
231	0x3e544acf	0.20731662
232	0x3dcfafb5	0.10140935
233	0x3d5fcbd1	0.054637734
234	0xbd02400c	-0.03179936
235	0x3d8b8e75	0.06814281
236	0xbcb28449	-0.021791594
237	0xbe0d9c9a	-0.1382927
238	0xbc710203	-0.014709952
239	0x3e08f021	0.13372852
240	0x3d1c2290	0.0381189
241	0x3c11ca03	0.008898261
242	0x3e3030cb	0.17206113
243	0x3dcd6ba9	0.100303
244	0x3d794cad	0.06086414
245	0x3e575197	0.21027218
246	0x3e13bd8b	0.14427774
247	0xbd23c258	-0.039980263
248	0xbe110b37	-0.14164434
249	0x3d911e84	0.070858985
250	0x3e2bd584	0.16780668
251	0x3e2240cb	0.15845029
252	0x3deabaa2	0.11461379
253	0x3e1a9a90	0.15098023
254	0xbb012c8d	-0.0019710392
255	0xbd42ce99	-0.047560308

features.0.bias f4 [16]
0	0x3df759f4	0.12077704
1	0x3dfe70fe	0.12423895
2	0x3e043e74	0.12914449
3	0x3e63565e	0.22200915
4	0x3df49e1c	0.119442195
5	0xbdd91cbf	-0.10601186
6	0x3df0bae4	0.117543966
7	0xbab9f419	-0.0014187127
8	0x3db177c3	0.08665421
9	0x3d6000ac	0.05468814
10	0xbc1996bc	-0.009374317
11	0x3d9a36e4	0.07530001
12	0x3e2dceb1	0.16973378
13	0xbdaf0c36	-0.08547251
14	0xbdf2628c	-0.118352026
15	0xbd4b431d	-0.04962455

features.3.weight f4 [32, 16, 3, 3]
0	0xbb297700	-0.0025858283
1	0x3dc7a9b4	0.09749165
2	0x3c08f454	0.008359034
3	0x3d843ef0	0.06457317
4	0xbd94644a	-0.07245691
5	0x3c6881ac	0.014191072
6	0x3d592f61	0.0530237
7	0x3db0462f	0.086071365
8	0x3d968914	0.07350364
9	0x3d20eba1	0.039287213
10	0xbda6cbd8	-0.08144349
11	0xbdade4da	-0.084909156
12	0x3be09f51	0.0068549295
13	0xbd780135	-0.060548026
14	0xbc3f8b7b	-0.01169097
15	0x3c85a2ae	0.016312923
16	0x3d691ac0	0.056910276
17	0xbd48d94c	-0.049035355
18	0xbd2c49a9	-0.042062435
19	0xbd475138	-0.04866144
20	0xbd7e3495	-0.062061865
21	0x3cd22a75	0.02565501
22	0x3d1c663e	0.038183443
23	0xbcb4802f	-0.022033779
24	0x3bb0f2a6	0.0054000197
25	0xbce1fe00	-0.027586937
26	0x3d768898	0.06018886
27	0xbd8fffa1	-0.07031179
28	0x3d811e8e	0.06304656
29	0x3d07a294	0.03311403
30	0xbcec4b5d	-0.02884453
31	0x3d820152	0.06347908
32	0x3dafa6ce	0.08576737
33	0x3d47ff04	0.048827186
34	0xbd2f9e9e	-0.04287588
35	0x3ceaf84a	0.028682847
36	0x3d0d9cef	0.03457349
37	0x3d8623e6	0.06549816
38	0x3d81b02d	0.06332431
39	0x3d7115e4	0.058858767
40	0xbd7be35c	-0.061496124
41	0x3cafa67b	0.021441689
42	0xbd1edfa1	-0.038787488
43	0x3d915310	0.07095921
44	0xbdc37bae	-0.095450744
45	0xbc8c407e	-0.017120596
46	0xbd04a2ed	-0.03238194
47	0x3d92460d	0.071422674
48	0xbd50bbc5	-0.05096032
49	0x3d93b0b0	0.07211435
50	0x3d2cdfd6	0.042205654
51	0xbd22e47b	-0.039768677
52	0x3dd20f48	0.10256821
53	0x3d7e54be	0.062092535
54	0x3c378d90	0.011203185
55	0xbd10308d	-0.03520255
56	0xbcd2053d	-0.025637263
57	0x3d833569	0.064066716
58	0x3dbcbcb9	0.092156835
59	0x3d041133	0.032242965
60	0x3d6ac596	0.05731734
61	0xbd8c8929	-0.06862099
62	0xbcba8629	-0.02276905
63	0x3e16beac	0.14721173
64	0xbd998b3b	-0.07497259
65	0x3c6a623e	0.014305649
66	0x3d47e277	0.048799958
67	0x3d6b19ca	0.05739764
68	0xbcd3db5c	-0.025861435
69	0x3e1bff25	0.15234049
70	0x3dda470d	0.10658083
71	0x3d86db23	0.06584766
72	0xbd889e0b	-0.06670769
73	0xbd88753f	-0.06662988
74	0x3c97a83b	0.018512836
75	0x3c669d54	0.014075596
76	0xbcd35fce	-0.02580252
77	0xbd9225d2	-0.0713612
78	0xbd43dcf5	-0.047818143
79	0xbce9ac76	-0.028524619
80	0x3c075480	0.008259892
81	0xbdb34106	-0.087526366
82	0xbdfe624c	-0.124210924
83	0x3c869770	0.016429633
84	0x3c0c4b38	0.008562855
85	0xbdac14b8	-0.08402389
86	0xbd7c5298	-0.061602205
87	0xbc0000db	-0.007812704
88	0xbd8c2c1a	-0.06844349
89	0xbcaead02	-0.02132273
90	0xbd1b552e	-0.03792303
91	0x3c8f9070	0.017524928
92	0x3c97243b	0.018449893
93	0xbd1cbf67	-0.038268473
94	0xbdc6d7d6	-0.09709136
95	0x3c308139	0.010772997
96	0xbc8b381a	-0.016994525
97	0xbc95468f	-0.018222122
98	0xbd7fb7a0	-0.062430978
99	0xbc97b0a6	-0.01851685
100	0x3dc7323d	0.09726379
101	0x3db976a6	0.090558335
102	0xbd9421d4	-0.07233015
103	0x3d092d3d	0.03349041
104	0x3d07b077	0.033127274
105	0xbd79c24e	-0.06097632
106	0x3cdb2321	0.02675015
107	0x3d60e5e8	0.054906756
108	0xbbcbce78	-0.0062196814
109	0x3d88ca77	0.06679242
110	0xbdb1108a	-0.08645733
111	0x3d08dcbc	0.033413634
112	0x3cd95db6	0.026533943
113	0x3d91fd87	0.07128435
114	0x3d576a40	0.052591562
115	0xbc1346c8	-0.0089890435
116	0x3d577f40	0.05261159
117	0xbc709a79	-0.014685267
118	0xbd0f29c4	-0.03495194
119	0x3d7f597a	0.06234119
120	0x3d1e2a89	0.038614783
121	0xbd4f15fd	-0.05055808
122	0x3cfb1aa7	0.030652357
123	0xbdab2a4a	-0.083576754
124	0x3be9aaaf	0.007130943
125	0xbd2deeb8	-0.042463988
126	0x3d8459f0	0.06462467
127	0xbc9fe9d9	-0.019520687
128	0x3c9ed7ab	0.019389948
129	0xbd461b44	-0.048365846
130	0x3d8524be	0.06501149
131	0x3c0c2c86	0.008555537
132	0xbd2d75c5	-0.042348642
133	0x3d02dede	0.031950824
134	0x3d9472fa	0.072484925
135	0xbd74aa0e	-0.05973249
136	0xbd32ecac	-0.04368274
137	0x3d397fe3	0.045287978
138	0xbd33ead4	-0.04392512
139	0x3b0716ff	0.0020613072
140	0x3d674570	0.056462705
141	0x3d53f50b	0.051747363
142	0xbd94823a	-0.07251401
143	0x3bafaf59	0.0053614792
144	0x3d55a85c	0.052162513
145	0x3d05d4b1	0.03267354
146	0xbcf10f2f	-0.029426185
147	0x3da1a0e9	0.07892019
148	0x3cda0a07	0.02661611
149	0xbd4c1230	-0.049822032
150	0x3d4b2020	0.049591184
151	0x3d8a4abc	0.06752536
152	0x3d2237f0	0.039604127
153	0xbb8bd024	-0.0042667557
154	0xbd6b9b31	-0.05752105
155	0xbde93974	-0.113879114
156	0x3c6a7b9d	0.014311698
157	0x3def89d3	0.1169621
158	0xbcd38c44	-0.02582372
159	0xbd39ff77	-0.045409646
160	0x3d592bbe	0.05302023
161	0x3dc3661c	0.0954096
162	0x3d7f31bc	0.06230329
163	0x3d9e2a6e	0.077229366
164	0x3c9e67a7	0.019336535
165	0x3d0dc529	0.034611855
166	0x3c83ed21	0.016104283
167	0xbb8b000a	-0.004241948
168	0x3c554b80	0.013018489
169	0x3bf3368b	0.0074222735
170	0xbd9bf86d	-0.07615743
171	0xbd15bd73	-0.036557626
172	0xbdb2f69e	-0.08738445
173	0xbdfae9b1	-0.12251604
174	0x3dd7eb49	0.10542924
175	0xbda532cb	-0.080663286
176	0xbdaf326e	-0.085545406
177	0xbc108692	-0.008821147
178	0xbd9b2c03	-0.07576754
179	0xbcb7f14b	-0.022453925
180	0xbc50793f	-0.01272422
181	0x3d3d32b1	0.04619092
182	0xbd2e42f2	-0.042544313
183	0x3d16deca	0.036833562
184	0x3d9f02c4	0.077641994
185	0x3ddb1a1f	0.106983416
186	0xbd410ebf	-0.047133204
187	0xbc969de5	-0.018385837
188	0x3d86933a	0.0657105
189	0x3deebff1	0.11657704
190	0x3db854f3	0.09000578
191	0x3d18505a	0.037186004
192	0x3d6e9e20	0.05825627
193	0x3d103ca4	0.03521408
194	0xbd09b279	-0.03361747
195	0xbd5216ef	-0.051291402
196	0xbdf7872f	-0.12086331
197	0xbd839fae	-0.06426941
198	0x3a2cb6bf	0.00065885106
199	0x3dedf18a	0.116183355
200	0x3c9d79c4	0.019223101
201	0x3cc2c27f	0.023774384
202	0x3c7ca934	0.015421201
203	0x3dc4dd3c	0.096125096
204	0xbddba712	-0.107252255
205	0xbb89ae32	-0.004201674
206	0xbd00769f	-0.031363126
207	0xbcd641d8	-0.026154444
208	0x3d75f98c	0.06005244
209	0x3d6b8bc8	0.057506353
210	0xbd10753c	-0.035268053
211	0xbd19ff14	-0.037596777
212	0xb9fd716e	-0.00048340432
213	0x3d8c06cf	0.06837236
214	0xbd9d9328	-0.076940835
215	0xbd06fafe	-0.03295421
216	0xbb136d0e	-0.0022495422
217	0xbe099789	-0.13436712
218	0xbe14a5b4	-0.14516336
219	0x3d96247f	0.0733118
220	0x3cf7bbe4	0.03024096
221	0xbd57cc34	-0.052684978
222	0xbda95c2b	-0.08269533
223	0xbdb0225d	-0.08600304
224	0xbdc8257c	-0.097727746
225	0xbde344f7	-0.110971384
226	0xbcdc3ac4	-0.02688349
227	0x3be1d732	0.0068921084
228	0x3ca4a31e	0.020097312
229	0xbb5f7898	-0.003409898
230	0xbdc3488c	-0.095353216
231	0xbb5cb225	-0.0033675518
232	0xbd865a98	-0.06560248
233	0x3cd69d34	0.026198007
234	0x3b88c289	0.004173581
235	0x3dbed3cc	0.09317741
236	0xbc3eef23	-0.011653694
237	0x3dd3a5cd	0.10334358
238	0x3d9fe363	0.078070424
239	0x3d02ce5f	0.031935092
240	0xbcaef97a	-0.021359194
241	0xbda21120	-0.079134226
242	0xbd2dba6a	-0.042414106
243	0xbd8e34e4	-0.06943682
244	0xbc9416c5	-0.018077264
245	0x3dcc1723	0.099653505
246	0xbd0c7366	-0.03428974
247	0xbb19200c	-0.0023365049
248	0x3d87fd6c	0.06640133
249	0x3d190a9d	0.037363637
250	0x3d5ee973	0.054421853
251	0x3da81793	0.082076214
252	0xbdc1268e	-0.09431182
253	0xbe06d7ae	-0.13168213
254	0xbdb18461	-0.086678274
255	0x3bad8232	0.0052950615

features.3.bias f4 [32]
0	0xbd3d5549	-0.046223912
1	0x3a8bfb29	0.001067971
2	0xbd237377	-0.039905038
3	0xbd4a683d	-0.049415816
4	0x3adb6e39	0.0016741223
5	0xbcffc4eb	-0.031221827
6	0x3b0b0222	0.0021210988
7	0x3d4f35d1	0.050588433
8	0x3cf9045b	0.030397585
9	0xb9f7ac9c	-0.00047240115
10	0xbd8a2f2f	-0.06747281
11	0x3d52c297	0.051455107
12	0x3db1765d	0.08665154
13	0xbc047e7c	-0.008086797
14	0x3c37d0c7	0.01121921
15	0x3cb2e2ce	0.021836665
16	0x3bcdea64	0.006284045
17	0xbd38bc74	-0.045101598
18	0x3c078915	0.008272429
19	0x3d13ecc2	0.03611446
20	0x3dbb3d67	0.09142571
21	0xbc92c01b	-0.017913869
22	0x3b941f56	0.004520337
23	0xbc70e9b7	-0.014704159
24	0x3db47976	0.08812229
25	0x3d9d8504	0.07691386
26	0xbc8075d8	-0.015681192
27	0xbd9fc224	-0.07800701
28	0xbd0f58c6	-0.03499677
29	0x3da2aab1	0.07942713
30	0xbda4fe92	-0.08056368
31	0xbd0ba697	-0.03409442

features.6.weight f4 [64, 32, 3, 3]
0	0x3aca0743	0.0015413541
1	0xbce84b8e	-0.02835634
2	0x3c882333	0.016618347
3	0x3d173b96	0.03692206
4	0x3b8206ad	0.003968081
5	0xbd1e76ba	-0.038687445
6	0xbd3f0e73	-0.04664464
7	0x3c9aa79e	0.018878754
8	0x3ce2978b	0.027660152
9	0x3b30ae7b	0.0026959467
10	0xbccc3664	-0.02492828
11	0xbc8d339a	-0.01723652
12	0xbd3c7089	-0.04600576
13	0xbd82510d	-0.063631155
14	0xbc1f439f	-0.009720712
15	0xbd0a85d1	-0.033819024
16	0xbd5d5e8b	-0.05404524
17	0xbd23ae94	-0.039961413
18	0x3c95e9ac	0.0182999
19	0xbd2dc805	-0.04242708
20	0xbb136011	-0.002248768
21	0x3d29230b	0.041293185
22	0xb9baa0a4	-0.0003559637
23	0xbc74aaa4	-0.014933262
24	0x3cd7f6a5	0.026362726
25	0x3d55ac7f	0.05216646
26	0x3d07f1d1	0.0331896
27	0xbd61fc85	-0.055172462
28	0x3c85d453	0.016336596
29	0xbd395c71	-0.045254175
30	0x39fd380f	0.00048297687
31	0xbd11e10f	-0.035615023
32	0x3be03853	0.006842652
33	0x3cd40720	0.025882304
34	0xbd1df7bc	-0.038566336
35	0x3d3a810d	0.04553323
36	0x3d472b23	0.048625123
37	0xbc8d0f30	-0.017219156
38	0x3d6285c2	0.055303343
39	0xbd008095	-0.031372625
40	0x3d7dcf99	0.06196556
41	0x3c28ce6c	0.010303121
42	0x3d53ee7c	0.05174111
43	0x3b6cc435	0.003612769
44	0xba461d93	-0.00075575075
45	0x3d52c4b7	0.051457133
46	0xbcc3f137	-0.023918731
47	0x3d081cb5	0.033230502
48	0xbd5904cf	-0.0529831
49	0xbc15d0c9	-0.009144017
50	0x3d274a63	0.040842425
51	0xbcdede87	-0.027205719
52	0x3c9caff5	0.019126872
53	0x3c0a096d	0.008425099
54	0x3d317fc0	0.043334723
55	0x3c43aceb	0.011943082
56	0x3d502a65	0.05082168
57	0xbd77c454	-0.060489967
58	0x3d1ea28c	0.038729236
59	0x3d103f41	0.035216574
60	0x3d25a92f	0.04044455
61	0xbcc51a41	-0.02406037
62	0xbd1d8dbc	-0.038465247
63	0x3d2a7c5f	0.041622516
64	0xbc16f59c	-0.009213831
65	0x3c9161c8	0.017746821
66	0xbd7bfb55	-0.061518986
67	0x3cf59a2e	0.029980745
68	0x3cb80f12	0.022468124
69	0xbce15422	-0.027505938
70	0xbca1873e	-0.019717809
71	0xbcaf4913	-0.02139715
72	0x3b736459	0.003713867
73	0xbd86a16c	-0.065737575
74	0xbd5cd3e2	-0.053913005
75	0x3d127a6d	0.035761286
76	0x3ca54458	0.02017419
77	0xbc16bf3a	-0.009200865
78	0xbce10dc5	-0.027472386
79	0xbd29f9ec	-0.04149811
80	0xbd21762d	-0.03941934
81	0x3c23c5ba	0.009995872
82	0x3c0c0cca	0.008547971
83	0x3cecd3f8	0.028909668
84	0x3b50b4ac	0.003184597
85	0xbcd920c3	-0.02650488
86	0xbbd61f11	-0.006534465
87	0x3d42106d	0.047378946
88	0x3cc19df6	0.023634892
89	0xbd158a6f	-0.036508974
90	0xbcc134e5	-0.023584792
91	0xbd385bca	-0.045009412
92	0x3d1377f6	0.036003076
93	0xbd891f51	-0.06695426
94	0xbd5420b8	-0.051789016
95	0x3b8258cc	0.0039778706
96	0xbd366456	-0.04452928
97	0x3c9e9070	0.019355983
98	0x3b94a6ce	0.004536486
99	0x3d1159c5	0.035486
100	0x3baed6eb	0.005335679
101	0xbd7de210	-0.061983168
102	0x3aa7c12a	0.0012798656
103	0x3c2760f2	0.010215985
104	0xbd61ec5b	-0.055157047
105	0x3ba26163	0.004955457
106	0x3cdb309e	0.02675658
107	0x3d10f4ab	0.035389584
108	0x3a5831d0	0.0008247169
109	0x3d07d815	0.033165056
110	0x3cb6007e	0.022217032
111	0xbd5f7b37	-0.054560866
112	0x3cfd9a08	0.030957237
113	0x3c5b9394	0.013401885
114	0x3cf2dfe3	0.029647773
115	0x3c3aace7	0.011393762
116	0x3bf2c155	0.007408301
117	0x3cbda834	0.023151495
118	0xbd49024a	-0.04907445
119	0x3d23c83c	0.03998588
120	0xbc72a8e7	-0.014810777
121	0xbd406543	-0.04697157
122	0xbd44965b	-0.047994953
123	0x3c60c2b3	0.013718295
124	0xbc99e0b6	-0.018783908
125	0x3d4a9c84	0.04946567
126	0xbc4192bb	-0.011814768
127	0xbc07da77	-0.008291832
128	0xbcc04ed0	-0.02347508
129	0x3d009a82	0.03139735
130	0x3d3dbba4	0.046321526
131	0x3c6baf80	0.014385104
132	0xbd288298	-0.04114017
133	0x3ce2016d	0.02758857
134	0xbd1e8d07	-0.038708713
135	0xbc273925	-0.010206495
136	0xbcda0ac3	-0.02661646
137	0xbd442a0f	-0.047891673
138	0xbc6db6b7	-0.014508895
139	0xbcdd4289	-0.027009265
140	0xbc38fbbb	-0.011290486
141	0xbd45d80b	-0.048301738
142	0xbd6ac4bc	-0.057316527
143	0x3d0d671a	0.034522153
144	0xbd61e51c	-0.055150136
145	0xbd5d5a65	-0.054041285
146	0xbd4f5de5	-0.050626654
147	0xbc2b00e7	-0.010437227
148	0xbd301db5	-0.04299708
149	0xbd28dc2e	-0.041225605
150	0xbc92a54e	-0.017901089
151	0xbbd25045	-0.0064182603
152	0x3d41fdd2	0.047361203
153	0xbd414a80	-0.04719019
154	0xbd3e327e	-0.04643487
155	0xbcf66886	-0.030079138
156	0x3d303f49	0.043029103
157	0x3d3e4b51	0.046458546
158	0xbd04d6d8	-0.032431453
159	0x3cd93c07	0.026517881
160	0xbcd833fd	-0.026391977
161	0x3d10c7e9	0.0353469
162	0x3d3e1a9d	0.0464121
163	0xbcaca3a0	-0.021074116
164	0xbc4c7418	-0.012478851
165	0xbcad6a01	-0.02116871
166	0xbcedec5c	-0.029043369
167	0xbd819a61	-0.063282736
168	0x3d161e0a	0.03664974
169	0xbd2d4c46	-0.04230907
170	0xbbe7e957	-0.007077377
171	0xbd3b5c8b	-0.045742553
172	0xbcc20104	-0.023682125
173	0xbc945a2a	-0.0181094
174	0x3c31da0c	0.010855209
175	0xb8f07afa	-0.00011466998
176	0xbce0766e	-0.027400222
177	0x3d28b7c8	0.041190892
178	0xbb577945	-0.0032878679
179	0x3cfc50ea	0.030800302
180	0xbd4ee111	-0.05050761
181	0x3d03b9b2	0.032159515
182	0xbd04ce45	-0.032423276
183	0x3d59a07c	0.053131565
184	0x3c3ec6ff	0.011644124
185	0xbd5aa9fc	-0.053384766
186	0xbd113bd8	-0.035457462
187	0x3ca39ffb	0.019973746
188	0xbca501db	-0.020142486
189	0x3ca0bf6b	0.019622525
190	0xbcf0824b	-0.029359004
191	0xbd3753c6	-0.044757627
192	0x3ac704a8	0.0015183883
193	0xbcc03565	-0.02346296
194	0x3c3b798c	0.011442553
195	0x3d03d39e	0.032184236
196	0xbd22ee07	-0.03977778
197	0x3d0baef9	0.034102414
198	0xbd5c8664	-0.053839102
199	0xbd1a97cf	-0.037742432
200	0x3cfdf889	0.0310023
201	0x3b9434d7	0.0045229006
202	0xbd34baa8	-0.04412332
203	0xbc512af3	-0.012766588
204	0xbd23940c	-0.03993611
205	0xbd17391b	-0.036919694
206	0xbd57dfda	-0.052703716
207	0xbd1ff2fe	-0.039050095
208	0x3c08f0e3	0.008358213
209	0xbc0be91c	-0.008539464
210	0xbccd8239	-0.025086509
211	0x3d1626ea	0.036658205
212	0xbd148f31	-0.03626937
213	0xbd6c0ef1	-0.057631437
214	0xbc72294c	-0.014780354
215	0x3cba55da	0.022746015
216	0xbcd7f5ab	-0.02636226
217	0x3c2aa4a2	0.010415228
218	0x3cf5e310	0.030015498
219	0xbd150878	-0.03638503
220	0xbcc0c33a	-0.023530591
221	0xbd2245cb	-0.03961734
222	0xbd18c000	-0.03729248
223	0xbd53c68c	-0.05170302
224	0xbba8b5ee	-0.005148641
225	0xbc5d1edc	-0.013496127
226	0x3d10a52b	0.035313766
227	0x3d26a880	0.040688038
228	0x3b3892a6	0.002816358
229	0xbd16d3c6	-0.036823057
230	0xbd2436a3	-0.040091168
231	0xbca28f20	-0.019843638
232	0xbd56328c	-0.0522943
233	0xbd41e8b4	-0.047341064
234	0x3c68ecfc	0.014216658
235	0x3d387173	0.04503007
236	0xbcbcbf71	-0.023040505
237	0xbbe3aeb3	-0.006948316
238	0x3d007075	0.031357247
239	0x3c51a0d1	0.012794689
240	0xbd8738de	-0.066026434
241	0xbcdcd188	-0.026955381
242	0xbcae814a	-0.021301884
243	0x3d0206ba	0.031744696
244	0xbd4a6015	-0.049408037
245	0xbc599bf7	-0.013281814
246	0xbc57d7cb	-0.013174008
247	0x3d6a4cd2	0.057202168
248	0x3d38bded	0.045103002
249	0x3d1d9489	0.038471732
250	0x3ca87a24	0.020566054
251	0x3c7049e9	0.014666059
252	0x3ca37588	0.019953504
253	0xbc96cb52	-0.018407498
254	0xbcad3bf7	-0.021146758
255	0xbd4787aa	-0.048713364

features.6.bias f4 [64]
0	0xbd838d14	-0.06423393
1	0x3c733fc7	0.014846749
2	0x3d135153	0.03596623
3	0x3c0b5f68	0.008506633
4	0x3c862ed7	0.016379757
5	0x3bae97c6	0.0053281514
6	0xbd757225	-0.05992331
7	0x3ca95ada	0.020673204
8	0x3c314342	0.010819258
9	0xbc9d63e0	-0.019212663
10	0x3d5d9f55	0.05410703
11	0x3d34befd	0.044127453
12	0x3d05756f	0.032582697
13	0xbd67d9d4	-0.05660422
14	0x3cee71fd	0.029107088
15	0x3c897900	0.01678133
16	0xbd7e207c	-0.0620427
17	0xbd6104cb	-0.05493621
18	0x3cf724fd	0.030169005
19	0xb9409c88	-0.0001836886
20	0x3d157997	0.03649291
21	0x3ca09fd3	0.01960746
22	0x3d26019e	0.040528886
23	0xbd8113f7	-0.06302636
24	0x3c8a0a36	0.016850572
25	0xbc4c5953	-0.012472468
26	0x3cb0f967	0.0216033
27	0xbd522d62	-0.05131281
28	0x3d5c9536	0.053853236
29	0x3d294c5b	0.041332584
30	0x3b357f8b	0.002769443
31	0xbc4e7ec2	-0.012603464
32	0x3d9c6e4d	0.07638226
33	0xbc6ffbfa	-0.014647478
34	0xbcf349f9	-0.029698359
35	0xbaffb062	-0.0019507522
36	0xbcda289c	-0.026630692
37	0xbcc6ef97	-0.024284167
38	0xbd5f656a	-0.054540075
39	0xbd24fae7	-0.04027834
40	0x3d3d4a34	0.046213344
41	0xbba26f31	-0.0049571027
42	0x3d70595e	0.058678977
43	0xbd72b1b2	-0.059251495
44	0xbc137345	-0.00899965
45	0x3c859359	0.016305612
46	0x3ac552e8	0.0015054615
47	0x3d9c1cf8	0.07622713
48	0x3cf8cd47	0.030371321
49	0x3d8e36a1	0.069440134
50	0xbd76181a	-0.06008158
51	0x3d49b75d	0.049247134
52	0x3d738f30	0.059462726
53	0x3d1bca52	0.038034745
54	0x3d0c9483	0.03432132
55	0x3c4b6d49	0.012416192
56	0xbcc0f94d	-0.023556376
57	0x3c142e02	0.009044172
58	0xbd678060	-0.056518912
59	0x3c7fe1f1	0.0156178335
60	0x3dd2e8e3	0.10298326
61	0xbc36acb8	-0.011149578
62	0xbd66a98a	-0.05631403
63	0x3bf4bca7	0.007468778

classifier.1.weight f4 [128, 1024]
0	0x3b63678a	0.0034699165
1	0xbc26fe12	-0.010192411
2	0xbcbbdb34	-0.022931673
3	0x3b553837	0.0032534727
4	0xba603a67	-0.00085536245
5	0xbcccf6a1	-0.025019946
6	0x3c9bd308	0.019021526
7	0x3b97c9a3	0.0046321913
8	0x3cbd3c80	0.023100138
9	0xbc6c2716	-0.014413616
10	0x3bcc15b8	0.006228175
11	0x3cadc341	0.021211268
12	0x3cd43430	0.025903791
13	0x3a8c730d	0.001071544
14	0x3be119b8	0.006869521
15	0x3c5bb3db	0.01340958
16	0x3d6c6bdc	0.05772005
17	0xbd18d8d4	-0.03731616
18	0xbcffe613	-0.031237638
19	0x3cb666ec	0.022265874
20	0x3d99181d	0.07475302
21	0xbdbd5a91	-0.0924579
22	0xbd5b322d	-0.05351465
23	0x3c9cb4b8	0.019129142
24	0x3bdecb00	0.006799102
25	0xbdc5e46a	-0.09662707
26	0xbe04bfb9	-0.12963761
27	0xbd3d60a8	-0.046234757
28	0x3c2e35bf	0.010632931
29	0xbde93672	-0.11387338
30	0xbd9fd1c5	-0.07803682
31	0xbd8cb74c	-0.068708986
32	0x3d43cd55	0.04780324
33	0xbd23aafc	-0.039957985
34	0x3d1b496d	0.03791182
35	0x3cef8fad	0.029243315
36	0x3a900e15	0.0010990525
37	0xbb3b43f7	-0.0028574446
38	0x3bdfb09d	0.006826474
39	0x3bc12ef9	0.005895492
40	0xbcc314c6	-0.023813616
41	0x3b9407d0	0.004517533
42	0xbd8d9a05	-0.069141425
43	0xbd89a8ca	-0.06721647
44	0xbd97ac96	-0.07405965
45	0x3bd5b362	0.0065216282
46	0xbccd781d	-0.025081689
47	0xbc805ff2	-0.01567075
48	0xbc75aa65	-0.0149942385
49	0x3d50dfe9	0.050994787
50	0xbd013c4a	-0.031551637
51	0xbce46d5b	-0.027884176
52	0x3da70964	0.08156088
53	0x3da8b062	0.08236767
54	0x3d1174cb	0.035511773
55	0xbd128aba	-0.03577683
56	0x3d42351b	0.047413927
57	0x3d1f5820	0.038902402
58	0x3d2e9ea7	0.04263177
59	0xbd7e5743	-0.062094938
60	0x3d990932	0.07472457
61	0x3cad171e	0.021129187
62	0xbc27338a	-0.010205159
63	0xbd728c3f	-0.05921578
64	0x3d55f20a	0.05223278
65	0x3c58db9d	0.013235954
66	0xbd0a0df9	-0.03370473
67	0x3d3476ce	0.044058613
68	0x3c701c30	0.014655158
69	0xbce3bb5d	-0.027799303
70	0xbd33cdf5	-0.043897588
71	0xbcaa291c	-0.020771556
72	0xbd4ca441	-0.049961332
73	0xbca3a7a1	-0.019977393
74	0xbdbb9bc3	-0.091605686
75	0xbd7b1324	-0.06129755
76	0xbd8029e7	-0.06257992
77	0xbd62eafc	-0.05539988
78	0xbc38546f	-0.011250599
79	0xbc9ad1b0	-0.018898815
80	0xbd74617e	-0.05966329
81	0x3d79c587	0.060979392
82	0x3d519ce5	0.051175017
83	0x3bc45c5c	0.0059924554
84	0x3c43f2d3	0.011959749
85	0x3c2c5799	0.010518932
86	0xbc830a90	-0.015996248
87	0xbb97f12a	-0.0046369033
88	0x3d678571	0.056523744
89	0x3d069087	0.032852676
90	0x3cf2c645	0.029635558
91	0x3cbc0aa9	0.022954302
92	0x3cf36470	0.029710978
93	0x3cea249b	0.028581908
94	0xbcd112f3	-0.025521731
95	0xbba8f946	-0.005156669
96	0xbcdbdc11	-0.026838334
97	0x3cc79324	0.024362154
98	0x3cdbafe5	0.026817271
99	0x3bf48f45	0.007463368
100	0x3d151f04	0.036406532
101	0x3c8271bc	0.015923373
102	0x3cc131d4	0.02358333
103	0x3d4183b8	0.047244757
104	0x3c1b02d0	0.00946112
105	0x3c7057a9	0.014669337
106	0x3a3e5fb2	0.00072621845
107	0x3cb00646	0.021487366
108	0x3d33c57c	0.043889508
109	0x3d3e7577	0.046498742
110	0x3d2b0962	0.041756995
111	0x3cbf62d5	0.023362556
112	0xbdd3bca3	-0.10338714
113	0x3cbfa3d4	0.023393549
114	0x3dc919c7	0.0981937
115	0x3d3cc9b9	0.046090815
116	0xbceb566a	-0.028727729
117	0xbd42d2a7	-0.047564175
118	0xbc750a94	-0.014956135
119	0xbb56838e	-0.0032732221
120	0x3c3d75b3	0.011563706
121	0xbc82e9b4	-0.015980579
122	0x3c717b1c	0.014738824
123	0x3ca848fc	0.020542614
124	0x3b99028c	0.004669493
125	0x3d0ac9b2	0.033883758
126	0xbd08b108	-0.033371955
127	0xbcf39546	-0.029734265
128	0x3dad1543	0.08451321
129	0x3cd8482a	0.026401598
130	0x3d672c45	0.056438703
131	0x3d96f0ba	0.07370134
132	0x3d32e172	0.043672033
133	0xbdcf2bc9	-0.10115773
134	0xbddf4af8	-0.10902971
135	0x3ca99530	0.020701021
136	0xbd49f865	-0.049309153
137	0xbdc9e49a	-0.098580554
138	0xbd74534a	-0.059649743
139	0xbd217abe	-0.039423697
140	0xbcc81c58	-0.024427578
141	0xbd336da3	-0.04380573
142	0xbd5d098a	-0.053964175
143	0xbcea74be	-0.02862012
144	0xbdd27840	-0.10276842
145	0x3b731edb	0.0037097249
146	0x3d3b170b	0.045676272
147	0xbc829c0a	-0.015943546
148	0xbc0cf746	-0.008603876
149	0x3d3e7d72	0.046506353
150	0x3d072139	0.032990668
151	0x3c336310	0.010948911
152	0xbcd26647	-0.025683535
153	0xbb4bd538	-0.003110243
154	0xbcc9548b	-0.024576446
155	0xbb8c659e	-0.0042845747
156	0x3cb40cbb	0.021978727
157	0xbaa0378c	-0.0012223586
158	0x3d02f6f2	0.031973787
159	0x3d01c8a4	0.031685486
160	0x3d0c88e2	0.03431023
161	0x3d05d46c	0.032673284
162	0x3b069b08	0.0020539183
163	0xbdaee22f	-0.08539235
164	0x3d56aafe	0.052409165
165	0x3cdd81b4	0.027039386
166	0x3b686793	0.0035462126
167	0xbc7b0697	-0.015321395
168	0xbc831a04	-0.016003616
169	0x3cea45be	0.028597709
170	0x3c32c56b	0.010911326
171	0xbc923936	-0.017849546
172	0xb9d6ea63	-0.00040991892
173	0x3bd5c141	0.006523282
174	0x3ad8f1c0	0.0016551539
175	0xbd644429	-0.055729065
176	0x3c3ead8b	0.011638056
177	0xbd226fed	-0.039657522
178	0x3bc9d14f	0.0061589847
179	0x3bd705d3	0.0065619736
180	0x3d30d7e9	0.043174658
181	0x3bbec3bb	0.0058216727
182	0x3d41d891	0.047325674
183	0x3d316f4f	0.043319043
184	0x3d35dd7c	0.044400677
185	0xbbd19817	-0.0063963044
186	0xbc70cce3	-0.014697286
187	0xbd077e34	-0.03307934
188	0xbc21d625	-0.009877716
189	0xbc0bbe94	-0.008529324
190	0xba7bb27c	-0.00096014864
191	0x3c265f35	0.010154535
192	0x3d28346f	0.04106563
193	0xbbe8ccc6	-0.007104489
194	0x3c8c7c0e	0.017148998
195	0x3d0bfd19	0.03417692
196	0x3cf6ddc6	0.030135047
197	0xbbe1b335	-0.006887818
198	0x3cb70e40	0.022345662
199	0x3d4e5c25	0.050380845
200	0x3d09648b	0.03354315
201	0xbb9f57b6	-0.004862751
202	0x3d1bc102	0.038025863
203	0xbcc17d5d	-0.023619348
204	0x3d228b14	0.039683416
205	0x3ba726ea	0.0051010745
206	0xbc8e716e	-0.017388072
207	0xbc0d7fd7	-0.008636436
208	0x3c9f235a	0.019426037
209	0x3c7fa294	0.0156027265
210	0x3bb73fa0	0.0055923015
211	0xbcac85e4	-0.021059938
212	0x3c10b6d4	0.008832652
213	0xbd0498b2	-0.032372184
214	0xbce76c91	-0.02825001
215	0x3cf716aa	0.030162174
216	0xbc63e960	-0.013910621
217	0x3bfc5f68	0.007701803
218	0x3cef1362	0.029184047
219	0x3cdbfba6	0.026853394
220	0x3b651730	0.0034956448
221	0x3c82107e	0.015877005
222	0x379b77a3	1.853315e-05
223	0xbbb4c247	-0.0055163237
224	0xbcd643bf	-0.02615535
225	0xbcd6006a	-0.026123244
226	0x3ce0ce13	0.027442014
227	0x3b97e9cd	0.0046360255
228	0xbc81f15e	-0.015862163
229	0xbc21a469	-0.009865859
230	0x3c76fce6	0.015074944
231	0xbcfdac9b	-0.030966094
232	0x3d17ada4	0.03703083
233	0x3d548491	0.051884238
234	0x3d1c74f1	0.03819746
235	0x3bef97d1	0.007311799
236	0xbb841ae5	-0.0040315264
237	0x3c52dd8a	0.012870202
238	0x3cebd36b	0.028787335
239	0x3b80a16e	0.003925494
240	0xbc290837	-0.0103169
241	0x3dce4c26	0.10073118
242	0xbcf4edf5	-0.029898623
243	0x3dcf9c2e	0.10137211
244	0xbcfa1bb9	-0.030530797
245	0xbd55115b	-0.052018505
246	0xbd702e2e	-0.05863779
247	0x3da0256f	0.0781964
248	0xbdba9e1e	-0.0911219
249	0xbca77d91	-0.020445617
250	0xbd0f0aa0	-0.034922242
251	0x3cec844f	0.028871683
252	0xbe1a01f6	-0.1503981
253	0xbc1e62fe	-0.009667156
254	0x3c0eb2d1	0.008709625
255	0x3d9a5a63	0.07536771

classifier.1.bias f4 [128]
0	0xbc39d369	-0.011341908
1	0x3b53282f	0.0032219996
2	0xbcc976c4	-0.024592765
3	0xbce6d3b9	-0.02817713
4	0xbce5959d	-0.028025443
5	0x3d13b7ab	0.03606383
6	0xbb8ec328	-0.0043567605
7	0xbce2d415	-0.02768902
8	0x3d498933	0.04920311
9	0x3cb1cc42	0.021703843
10	0x382f78e2	4.1835832e-05
11	0x3b7c032f	0.0038454046
12	0x3cf08aa5	0.029362986
13	0x3c7e2520	0.015511781
14	0x3c9ee610	0.019396812
15	0x3d0a54c4	0.033772245
16	0x3cd027bb	0.02540957
17	0xbd006391	-0.031344954
18	0xbb32d5f3	-0.0027288168
19	0xbcf465fc	-0.029833786
20	0x3c92b955	0.017910639
21	0xbcf335fe	-0.029688831
22	0x3cc6b665	0.024256894
23	0x3bb72f71	0.0055903723
24	0x3d279fc3	0.040923845
25	0xbb6d986d	-0.0036254183
26	0xbc568ef6	-0.013095608
27	0xbcbd7c47	-0.02313055
28	0x3bea9502	0.0071588764
29	0x3c2bd12f	0.010486885
30	0xbc8f069b	-0.017459204
31	0xbbb6d8fa	-0.005580065
32	0xbc4b6c27	-0.012415922
33	0x3d4b352c	0.049611256
34	0x3caa9998	0.020825192
35	0x3ca3f871	0.020015927
36	0x3c1cb97a	0.009565705
37	0xbc601be2	-0.013678523
38	0x3d174189	0.036927734
39	0x3c84839d	0.01617604
40	0xbcdc45b7	-0.026888711
41	0x3a87477a	0.0010320984
42	0x3c8d1a25	0.01722438
43	0x3c238df8	0.009982578
44	0xbcbd841b	-0.023134282
45	0xbc92e35a	-0.017930675
46	0x39fe9df0	0.00048564328
47	0x3d2b80e9	0.041870985
48	0x3bff9a3f	0.00780037
49	0xba6e627a	-0.00090936536
50	0x3a6a9eca	0.0008950053
51	0xbd187e3c	-0.03722976
52	0x3c1eae74	0.009685148
53	0xbb1c485d	-0.0023846843
54	0x3cdb9ba0	0.026807606
55	0xbb4518ed	-0.0030074671
56	0xbc39262a	-0.011300603
57	0x3d280660	0.041021705
58	0x3c86be7b	0.01644825
59	0x3cbb1ef2	0.022841904
60	0x3cbf94d6	0.0233864
61	0xbc76cbf0	-0.015063271
62	0x3aea0203	0.0017853383
63	0xbc233b7f	-0.009962915
64	0xbca3ad61	-0.019980134
65	0xbad50c3f	-0.001625426
66	0x3ca59430	0.020212263
67	0xbd1312cb	-0.035906594
68	0xbcf34dc7	-0.029700173
69	0x3cbdf208	0.023186699
70	0x3cb2998c	0.021801732
71	0x3d48c05c	0.049011573
72	0x3c89f9c6	0.016842734
73	0xbcda0578	-0.026613936
74	0x3ce5dc5e	0.02805918
75	0xbb51241c	-0.0031912392
76	0xbaaa813e	-0.0013008488
77	0xbd1fba2a	-0.0389959
78	0xbb69f194	-0.003569697
79	0xbc76e070	-0.0150681585
80	0xbd2e7523	-0.04259218
81	0xbbaa0b69	-0.0051893485
82	0xbc99dd16	-0.01878218
83	0xba4db9b3	-0.0007847801
84	0xbc97fecf	-0.01855412
85	0x3d026b0a	0.03184036
86	0x3b888866	0.0041666506
87	0xbbe37635	-0.0069415816
88	0xbd25cca3	-0.04047836
89	0xbc07d689	-0.008290895
90	0x3cb9ff92	0.022704873
91	0xbbe04250	-0.0068438426
92	0xbcdcb89d	-0.0269435
93	0xbca362e1	-0.01994461
94	0x3ce8b17c	0.028404944
95	0x3c344fe1	0.011005373
96	0x3a39249a	0.0007062644
97	0xbd6aa286	-0.0572839
98	0xbcea0ca6	-0.028570484
99	0x3d1e7e6b	0.03869478
100	0xbd2f8c93	-0.04285867
101	0x3b2302ec	0.0024873568
102	0x3b200f5c	0.0024423217
103	0x3c12dbb9	0.008963519
104	0x3d00c014	0.03143318
105	0x3ccb0ceb	0.024786433
106	0xbcb00f75	-0.021491745
107	0xbcc9fb64	-0.024656005
108	0xbd0d3cea	-0.03448192
109	0xbcb7d05c	-0.02243822
110	0x3cead118	0.028664157
111	0xbc5e04ad	-0.0135509195
112	0x3cb2fa20	0.021847785
113	0x3c0e436a	0.008683065
114	0x3b40a951	0.0029397795
115	0x3ce1a8ad	0.027546251
116	0x3d718f14	0.05897434
117	0x3c436a8f	0.011927261
118	0xbca4d9df	-0.02012342
119	0x39e641e8	0.00043918123
120	0xbd142525	-0.036168236
121	0xbcc3fb19	-0.023923444
122	0x3b419418	0.0029537734
123	0x3cf1d756	0.029521625
124	0x3ce774ab	0.028253874
125	0x3d1de1b7	0.038545337
126	0x3d276430	0.04086703
127	0x3cc46c19	0.023977326

classifier.4.weight f4 [4, 128]
0	0x3e0509e6	0.12992057
1	0xbd3af3a6	-0.045642518
2	0x3daaa424	0.083320886
3	0xbd0388ac	-0.032112762
4	0x3d67d380	0.056598186
5	0x3df964f8	0.121774614
6	0x3d33e454	0.043918923
7	0x3d1e336c	0.03862326
8	0x3d6ba6f7	0.057532277
9	0x3cf9cec7	0.030494107
10	0xbcf1027c	-0.02942013
11	0xbdaa6e67	-0.08321839
12	0xbe055f12	-0.13024548
13	0x3d5cd59c	0.05391465
14	0xbd6b3bfa	-0.057430245
15	0xbddd90fc	-0.10818669
16	0x3d55c48b	0.05218939
17	0xbcde392c	-0.027126871
18	0xbdb1d966	-0.086840436
19	0xbd9abf0a	-0.07555969
20	0x3bf5f41f	0.007505908
21	0xbabfd6c7	-0.0014636152
22	0x3e3ef5a9	0.186484
23	0xbdf8ff79	-0.121581025
24	0xbdafb1f2	-0.08578862
25	0xbc3edb67	-0.011648989
26	0x3c61f3cb	0.013791035
27	0xbcaa404a	-0.020782609
28	0xba4695a4	-0.0007575399
29	0x3d3ec1d9	0.046571586
30	0xbd610df4	-0.054944947
31	0x3d463536	0.04839059
32	0xbe09d818	-0.1346134
33	0x3c335bb2	0.010947155
34	0x3d7ef17e	0.062242024
35	0xbd91d5c4	-0.07120851
36	0x3d133f2f	0.03594893
37	0x3d6c27ed	0.057655264
38	0x3d7e55b8	0.062093467
39	0xbd1530e9	-0.036423597
40	0xbd1c0945	-0.038094778
41	0xbd8eb88c	-0.06968793
42	0xbe1b9f74	-0.15197545
43	0x3e0935de	0.13399455
44	0xbd640408	-0.055667907
45	0x3d6b748f	0.057484206
46	0x3d22f5c2	0.039785154
47	0x3e016fd2	0.12640312
48	0xbd423e0f	-0.047422465
49	0x3ca9e06f	0.020736901
50	0xbd85af3b	-0.06527563
51	0x3b424b5b	0.0029646966
52	0x3b670f55	0.0035256941
53	0x3d8f8654	0.07008043
54	0xbd463f02	-0.048399933
55	0xbdef1812	-0.11674513
56	0xbbf608b6	-0.0075083626
57	0xbd688bc8	-0.05677393
58	0xbd2528a9	-0.04032198
59	0xbcebe4a1	-0.028795542
60	0xbdc3fe55	-0.09569994
61	0x3ceb9085	0.028755436
62	0xbc69b784	-0.014264945
63	0x3d09d3d7	0.03364929
64	0xbc37f954	-0.011228878
65	0x3b2f13aa	0.0026714602
66	0xbd3c39a0	-0.045953393
67	0x3d951c50	0.07280791
68	0xbd6c5e0a	-0.05770687
69	0x3dc411f0	0.09573734
70	0xbe136b36	-0.14396366
71	0x3ca2e42e	0.019884195
72	0xbe1c6da2	-0.15276197
73	0x3a8371f9	0.0010028473
74	0x3de47795	0.11155621
75	0x3c044910	0.00807406
76	0x3d7c2515	0.0615588
77	0x3cf7e8d7	0.030262394
78	0xbbbe94e6	-0.00581609
79	0xbcb19dc4	-0.021681674
80	0x3cd5913d	0.026070232
81	0xbd9e9e25	-0.077450074
82	0x3bcd7db8	0.0062710904
83	0xbc9390d3	-0.018013394
84	0xbd9c4670	-0.076306224
85	0xbd0ae1b6	-0.03390666
86	0x3db982e7	0.09058171
87	0xbd996968	-0.07490808
88	0x3dc83102	0.097749725
89	0x3b6c6a9e	0.003607429
90	0x3a96b970	0.0011499356
91	0x3c7952b5	0.015217473
92	0xba638dde	-0.00086805027
93	0x3d7cdbee	0.06173318
94	0x3d550b2f	0.05201262
95	0x3c365c4e	0.011130406
96	0x3dfc2600	0.123119354
97	0x3c957b2f	0.018247215
98	0xbdbd7853	-0.09251466
99	0x3d66e2c5	0.056368608
100	0x3d4560e9	0.048188124
101	0x3e09ff6d	0.13476343
102	0xbd03abe1	-0.03214634
103	0x3d977821	0.0739596
104	0x3ddcf140	0.10788202
105	0x3d40ffbb	0.047118884
106	0x3cb8a38f	0.022538928
107	0x3d17f2d7	0.037096824
108	0x3d909aa3	0.070607446
109	0x3d02f210	0.03196913
110	0x3ccc9ac9	0.024976151
111	0x3d2b3612	0.041799612
112	0xbda946ee	-0.08265482
113	0xbda4fecc	-0.08056411
114	0xbcd16ece	-0.025565531
115	0xbde893be	-0.113563046
116	0x3d1615b4	0.03664179
117	0x3d102e2f	0.035200294
118	0xbd03eb5c	-0.032206878
119	0xbd19f78e	-0.037589602
120	0x3d7101a8	0.05883947
121	0xbd8cd677	-0.068768434
122	0xbb786a65	-0.0037905213
123	0xbd9844a2	-0.07434966
124	0x3e25c9cc	0.1619026
125	0x3da659ac	0.08122572
126	0x3e15ab91	0.14616229
127	0xbdee65ca	-0.116405085
128	0xbdc33476	-0.095314905
129	0x3c6e5e50	0.014548853
130	0x3d3b693b	0.045754652
131	0x3d4715e1	0.04860485
132	0xbd8a14ef	-0.06742274
133	0xbdda77cf	-0.10667383
134	0xbd00312b	-0.03129689
135	0xbd644628	-0.05573097
136	0x3d28af4c	0.0411828
137	0xbe0e4a49	-0.13895525
138	0xbd8ef579	-0.06980414
139	0x3da2e352	0.07953514
140	0x3ca7eafd	0.020497793
141	0x3dceb3d3	0.100928925
142	0xbb787c3b	-0.0037915844
143	0x3d1e8108	0.038697273
144	0x3cb20a7a	0.021733511
145	0xbd98c01a	-0.074585155
146	0x3dc4c64c	0.096081346
147	0x3b2d5524	0.0026448453
148	0xbce3c0d1	-0.027801903
149	0xbb5582c9	-0.0032579175
150	0x3a1ea45c	0.0006051713
151	0x3a037555	0.0005014737
152	0x3deabe05	0.114620246
153	0xbd489252	-0.048967667
154	0xbd350dcb	-0.044202607
155	0xbc5e3999	-0.013563537
156	0xbd09770a	-0.03356079
157	0x3dccef77	0.10006612
158	0x3d5bb326	0.053637646
159	0x3d7e235b	0.062045436
160	0x3d4c4e1a	0.04987917
161	0x3dc0b227	0.0940898
162	0xbdd75011	-0.10513318
163	0xbd6902b3	-0.05688734
164	0x3cb923a7	0.022600008
165	0x3d923cf2	0.07140531
166	0x3df2afd7	0.11849945
167	0xbc559d5a	-0.013038004
168	0x3a7d3a41	0.00096598646
169	0x3d355a7b	0.044275742
170	0xbd0ab298	-0.033861727
171	0x3dae88fb	0.08522221
172	0x3c6c3ec8	0.014419265
173	0xbda303fc	-0.07959744
174	0x3d544564	0.05182399
175	0x3c2055c0	0.009786069
176	0xbd0fbc17	-0.035091486
177	0xbe09a405	-0.13441475
178	0xbd4b78fa	-0.04967592
179	0x3bcd3a99	0.006263089
180	0x3bf28d80	0.007402122
181	0xbcc5fa5c	-0.024167232
182	0x3e01f40a	0.1269075
183	0x3c9c1b5d	0.019056017
184	0xbd3bbec7	-0.045836236
185	0x3dbe7f6f	0.0930165
186	0xbc7f9074	-0.015598405
187	0x3d19ae18	0.037519544
188	0x3dc8da69	0.098072834
189	0x3d44f73f	0.048087355
190	0x3d025f3c	0.031829104
191	0x3d54ae95	0.051924307
192	0x3bc2a55c	0.0059401225
193	0x39d08fa4	0.00039779872
194	0xbc853326	-0.016259741
195	0x3d8fc784	0.070204765
196	0xbcad2ab8	-0.021138534
197	0x3da9f161	0.082979925
198	0x3d62b6c8	0.055350095
199	0x3cbd91fc	0.0231409
200	0x3cce8326	0.02520902
201	0xbd8b4c7f	-0.068017
202	0x3d2fcf48	0.04292229
203	0x3d8c2773	0.06843462
204	0xbdc6a417	-0.096992664
205	0xba38751c	-0.00070364936
206	0xbda63714	-0.08115974
207	0xbd3bf5ab	-0.045888584
208	0x3d6b1123	0.05738939
209	0xbca7ac70	-0.020467967
210	0xbd5af5b4	-0.053456977
211	0x3c668ad6	0.014071187
212	0xbc545e1c	-0.012961891
213	0x3db0bede	0.08630155
214	0xbc8b4c97	-0.017004294
215	0xbd5888c6	-0.052864812
216	0x3b414fde	0.0029497067
217	0xbd9076cb	-0.07053908
218	0x3d99d3d4	0.07511106
219	0xbcabfb04	-0.020993717
220	0xbd7e89d3	-0.06214316
221	0x3c069c07	0.008215911
222	0x3d1eb902	0.038750656
223	0x3d93f433	0.07224312
224	0xbc701568	-0.014653541
225	0xbe7a9a63	-0.24472956
226	0x3dcd2609	0.1001702
227	0x3dc69652	0.0969664
228	0xbe68a2e7	-0.22718392
229	0xbe0ad1a1	-0.1355653
230	0x3c5a0222	0.013306173
231	0xbd9d74ae	-0.076882705
232	0xbb634fec	-0.0034685088
233	0xbdfafd36	-0.122553274
234	0xbb417b3a	-0.0029522912
235	0x3d820fdd	0.06350682
236	0xbcdbf001	-0.026847841
237	0x3c5d618a	0.013512025
238	0xbd0fe1c2	-0.03512741
239	0xbd827206	-0.063694045
240	0x3d1c3fe3	0.038146865
241	0xbd851dd3	-0.06499829
242	0xbd6d51cd	-0.05793934
243	0xbc932d79	-0.017966019
244	0x3ddacc12	0.106834546
245	0xbcf96eaa	-0.030448277
246	0x3d3953e7	0.04524603
247	0xbd76b50e	-0.06023126
248	0x3d108df9	0.035291646
249	0xbd7ce3d3	-0.061740708
250	0xbd9042ec	-0.07044014
251	0x3d82aef1	0.06381024
252	0xbd18d0dc	-0.03730856
253	0x3df54475	0.11975948
254	0x3cee1d47	0.029066695
255	0xbc77a63e	-0.015115319

classifier.4.bias f4 [4]
0	0xbdc79a36	-0.0974621
1	0xbdb412b8	-0.08792633
2	0x3d4a92b8	0.04945633
3	0xbd2ee75c	-0.04270111
